…
tream","name":"stdout","text":["Model: \"model\"\n","__________________________________________________________________________________________________\n"," Layer (type)                   Output Shape         Param #     Connected to                     \n","==================================================================================================\n"," input (InputLayer)             [(None, 8000, 1)]    0           []                               \n","                                                                                                  \n"," conv1d_15 (Conv1D)             (None, 8000, 128)    512         ['input[0][0]']                  \n","                                                                                                  \n"," activation_10 (Activation)     (None, 8000, 128)    0           ['conv1d_15[0][0]']              \n","                                                                                                  \n"," conv1d_16 (Conv1D)             (None, 8000, 128)    49280       ['activation_10[0][0]']          \n","                                                                                                  \n"," activation_11 (Activation)     (None, 8000, 128)    0           ['conv1d_16[0][0]']              \n","                                                                                                  \n"," conv1d_17 (Conv1D)             (None, 8000, 128)    49280       ['activation_11[0][0]']          \n","                                                                                                  \n"," conv1d_14 (Conv1D)             (None, 8000, 128)    256         ['input[0][0]']                  \n","                                                                                                  \n"," add_4 (Add)                    (None, 8000, 128)    0           ['conv1d_17[0][0]',              \n","                                                                  'conv1d_14[0][0]']              \n","                                                                                                  \n"," activation_12 (Activation)     (None, 8000, 128)    0           ['add_4[0][0]']                  \n","                                                                                                  \n"," max_pooling1d_4 (MaxPooling1D)  (None, 4000, 128)   0           ['activation_12[0][0]']          \n","                                                                                                  \n"," average_pooling1d (AveragePool  (None, 1333, 128)   0           ['max_pooling1d_4[0][0]']        \n"," ing1D)                                                                                           \n","                                                                                                  \n"," flatten (Flatten)              (None, 170624)       0           ['average_pooling1d[0][0]']      \n","                                                                                                  \n"," dense (Dense)                  (None, 256)          43680000    ['flatten[0][0]']                \n","                                                                                                  \n"," dense_1 (Dense)                (None, 128)          32896       ['dense[0][0]']                  \n","                                                                                                  \n"," output (Dense)                 (None, 5)            645         ['dense_1[0][0]']                \n","                                                                                                  \n","==================================================================================================\n","Total params: 43,812,869\n","Trainable params: 43,812,869\n","Non-trainable params: 0\n","_________________________________________________________
…
